…

22-08-02 22:56:42.567 - INFO: Random seed: 10
22-08-02 22:56:43.045 - INFO: Dataset [LDRsToHDR_dataset - LDRs2HDR] is created.
22-08-02 22:56:43.045 - INFO: Number of train images: 39,872, iters: 4,984
22-08-02 22:56:43.045 - INFO: Total epochs needed: 301 for iters 1,500,000
22-08-02 22:56:43.046 - INFO: Dataset [LDRsToHDR_dataset - LDRs2HDR] is created.
22-08-02 22:56:43.046 - INFO: Number of val images in [LDRs2HDR]: 70
22-08-02 22:56:46.295 - INFO: Network G structure: DataParallel - Model_G, with parameters: 80,647
22-08-02 22:56:46.295 - INFO: Model_G(
  (denoise): UnetSmall(
    (conv1): Conv2d(3, 16, kernel_size=(3, 3), stride=(1, 1), padding=(1, 1))
    (downsample): Sequential(
      (0): Conv2d(16, 32, kernel_size=(3, 3), stride=(2, 2), padding=(1, 1))
      (1): LeakyReLU(negative_slope=0.1, inplace=True)
      (2): Sequential(
        (0): Conv2d(32, 32, kernel_size=(3, 3), stride=(1, 1), padding=(1, 1), groups=32)
        (1): Conv2d(32, 32, kernel_size=(1, 1), stride=(1, 1))
      )
      (3): LeakyReLU(negative_slope=0.1, inplace=True)
    )
    (upsample): Sequential(
      (0): Sequential(
        (0): Conv2d(32, 32, kernel_size=(3, 3), stride=(1, 1), padding=(1, 1), groups=32)
        (1): Conv2d(32, 64, kernel_size=(1, 1), stride=(1, 1))
      )
      (1): PixelShuffle(upscale_factor=2)
    )
    (conv2): Conv2d(16, 3, kernel_size=(3, 3), stride=(1, 1), padding=(1, 1))
  )
  (att_module_l): SpatialAttentionModule(
    (att1): Sequential(
      (0): Conv2d(64, 64, kernel_size=(3, 3), stride=(1, 1), padding=(1, 1), groups=64)
      (1): Conv2d(64, 64, kernel_size=(1, 1), stride=(1, 1))
    )
    (att2): Sequential(
      (0): Conv2d(64, 64, kernel_size=(3, 3), stride=(1, 1), padding=(1, 1), groups=64)
      (1): Conv2d(64, 32, kernel_size=(1, 1), stride=(1, 1))
    )
    (relu): LeakyReLU(negative_slope=0.01)
  )
  (att_module_h): SpatialAttentionModule(
    (att1): Sequential(
      (0): Conv2d(64, 64, kernel_size=(3, 3), stride=(1, 1), padding=(1, 1), groups=64)
      (1): Conv2d(64, 64, kernel_size=(1, 1), stride=(1, 1))
    )
    (att2): Sequential(
      (0): Conv2d(64, 64, kernel_size=(3, 3), stride=(1, 1), padding=(1, 1), groups=64)
      (1): Conv2d(64, 32, kernel_size=(1, 1), stride=(1, 1))
    )
    (relu): LeakyReLU(negative_slope=0.01)
  )
  (feat_exract): Sequential(
    (0): Conv2d(3, 32, kernel_size=(3, 3), stride=(1, 1), padding=(1, 1))
    (1): ReLU(inplace=True)
  )
  (conv1): Sequential(
    (0): Conv2d(224, 224, kernel_size=(3, 3), stride=(1, 1), padding=(1, 1), groups=224)
    (1): Conv2d(224, 32, kernel_size=(1, 1), stride=(1, 1))
  )
  (channel_att): Sequential(
    (0): CAB(
      (CA): CALayer(
        (avg_pool): AdaptiveAvgPool2d(output_size=1)
        (conv_du): Sequential(
          (0): Conv2d(32, 8, kernel_size=(1, 1), stride=(1, 1), bias=False)
          (1): ReLU(inplace=True)
          (2): Conv2d(8, 32, kernel_size=(1, 1), stride=(1, 1), bias=False)
          (3): Sigmoid()
        )
      )
      (body): Sequential(
        (0): Conv2d(32, 32, kernel_size=(3, 3), stride=(1, 1), padding=(1, 1), bias=False)
        (1): PReLU(num_parameters=1)
        (2): Conv2d(32, 32, kernel_size=(3, 3), stride=(1, 1), padding=(1, 1), bias=False)
      )
    )
  )
  (conv2): Sequential(
    (0): Conv2d(32, 32, kernel_size=(3, 3), stride=(1, 1), padding=(1, 1), groups=32)
    (1): Conv2d(32, 32, kernel_size=(1, 1), stride=(1, 1))
  )
  (RDB): DRDB(
    (dense_layers): Sequential(
      (0): make_dilation_dense(
        (conv): Conv2d(32, 16, kernel_size=(3, 3), stride=(1, 1), padding=(2, 2), dilation=(2, 2))
      )
      (1): make_dilation_dense(
        (conv): Conv2d(48, 16, kernel_size=(3, 3), stride=(1, 1), padding=(2, 2), dilation=(2, 2))
      )
      (2): make_dilation_dense(
        (conv): Conv2d(64, 16, kernel_size=(3, 3), stride=(1, 1), padding=(2, 2), dilation=(2, 2))
      )
    )
    (conv_1x1): Conv2d(80, 32, kernel_size=(1, 1), stride=(1, 1))
  )
  (post_conv): Sequential(
    (0): Sequential(
      (0): Conv2d(32, 32, kernel_size=(3, 3), stride=(1, 1), padding=(1, 1), groups=32)
      (1): Conv2d(32, 32, kernel_size=(1, 1), stride=(1, 1))
    )
    (1): LeakyReLU(negative_slope=0.01, inplace=True)
    (2): Conv2d(32, 3, kernel_size=(3, 3), stride=(1, 1), padding=(1, 1))
    (3): ReLU(inplace=True)
  )
  (relu): LeakyReLU(negative_slope=0.01, inplace=True)
)
22-08-02 22:56:46.297 - INFO: Model [GenerationModel] is created.
22-08-02 22:56:46.297 - INFO: Start training from epoch: 0, iter: 0
export CUDA_VISIBLE_DEVICES=2
Disabled distributed training.
22-08-02 22:57:17.711 - INFO: <epoch:  0, iter:     100, lr:2.000e-04, , time:30.778> l_pix: 4.1740e-01 
…
